data.pth (torch, 11967 bytes, 6 tensors)

l1.weight f4 [8, 154]
00000000: 1d6a 71bf 3f42 863f 139d fc3e b25b bd3f
00000010: f160 6a3d bf17 8d3f f875 bd3f 2c8a 633f
00000020: 797e b8bd da04 913f 3276 71bf d560 283f
00000030: 9c1b 1140 d06a 3a3f 2d08 203f 1227 053f
00000040: 7d0a 27be d79e 0abf 1c40 d63f da39 b33e
00000050: 395d c2be 029e 0740 4537 8c3f 696a 983f
00000060: 968d ce3e b390 8c3f b990 5c3f 8539 ea3f
00000070: 2fbc 9ebf cdda 43bf db04 b53f a10c 793f
00000080: 4c1a 58bf d623 c63f 8ba0 6e3f 12a5 823f
00000090: bd27 42be e93b 693d 9103 623f ecad ddbe
000000a0: 2c3e b23f ba51 07bd b2ab aebe 848a 1c3f
000000b0: bd2a 5e3f d849 b5bc ccb8 d53f dc8e 333f
000000c0: 4fea 963e 9c14 273f aa0a aebe 96ae 683f
000000d0: 36a6 813f c58d 0140 e194 aebf be79 79bf
000000e0: d460 9dbd 014c d5be 06f6 093f 7f7d 8dbe
000000f0: e308 abbe dc87 f93e b549 79bf be73 1a3f
00000100: 7695 b7be e641 93bd bfb5 4cbf 6956 463f
00000110: 2f94 063f 157f 5a3e 5d7e ccbe 3c96 d93f
00000120: 5320 353f a7ea bd3f c23d 153f 85c8 913f
00000130: fc2e 62be 9efc c93e 3794 cebd 8492 8a3f
00000140: 2e4a 4bbf f4f3 213f fb57 a4be acc5 d73e
00000150: 4ca1 b2bf d00d 1b3f 444a 8f3f 63a4 ffbf
00000160: 3823 843e 9326 0040 bc4f f83e 5fb6 ac3f
00000170: ffa5 8ebf b546 8dbd e617 133f 8de7 953f
00000180: 5e39 853e 78f5 f83f 03e2 233e 2f9a 5e3f
00000190: 013e abbe 4880 873d 9380 debe c519 7e3f
000001a0: 8db2 713f 96f1 64bf 8d7a 1fbf c0b4 33bf
000001b0: 9f04 a13e 1c67 343f 9079 e93e d51a c23f
000001c0: d59b c83e bcf5 fa3e da41 ca3f a4ef b1bf
000001d0: 0f52 40bf e57e e0be d13d 00bf c25d 6a3f
000001e0: 9eba e6be 4c94 413f 6b7a 83be f1e6 c03f
000001f0: a50d 103f 2df2 6ebe 9d79 f73e 3838 9b3f
00000200: 52ff 3a40 a0bb f53f e154 a03f 5a65 8b3f
00000210: 7e1a 24bf bfdb c13e 82bb c7be 82b5 1cbf
00000220: 3dd3 713f 9bb0 09bf 1e49 cc3f 99ec 023f
00000230: ff7e 7abf 67b4 e7be 7a36 593f 4b93 78bd
00000240: 8724 87bf 360e b23f 739e 7e3f 58ed ae3e
00000250: 4717 ff3f 7b61 97bd 2b15 36bf ac41 79bf
00000260: 837b 383f 30d3 5b3e 29eb 693f 6657 a23d
00000270: 0068 d83e c5ae ce3f abe1 99be ab9f cfbe
00000280: 49bd d13f 000b 57be 931c c53e 733c ffbb
00000290: e364 7d3f 2cf5 abbe 613b b13f 53e2 86be
000002a0: b311 7fbe 77c8 c63e 99fe 303f 7d42 a13f
000002b0: 985b a1bf 3797 34bf bed4 95be 83d8 4d3f
000002c0: 0d65 77be 1c0c b53f 90d0 88be cf4e bcbd
000002d0: bc6a 0cbe 2af4 abbf a0f3 4d3f c508 a6be
000002e0: 059e d9be d1f2 673f 087b 973f 1d40 8cbf
000002f0: 790b 2fbe 9b44 12be c7e3 933f eaec 2ebd
00000300: b94d 8e3f bfd6 19bf 8849 2a3e c225 6d3e
00000310: 83ca 0ebf 86b9 89be 65e2 7abe df3b d03e
00000320: 08d8 253e 1dca 7e3f 24b3 b33f 6f0b 09bf
00000330: 4ffd 2cbf 93be 843f 7873 a63f 0d80 be3f
00000340: 7188 94bf f42a 553f 6716 7f3b 2616 4e3f
00000350: 1026 593f 0528 443f f9b8 333f 2fdd a1be
00000360: 225c 5a3f 78e8 9dbd 6f2d d73f ec5f 8cbe
00000370: 112d f43e e0df ec3e d199 0fbf eaa3 403f
00000380: 32c4 0dbf 9ef6 e6bf eac3 5e3e 8f1a ebbe
00000390: 89e5 b83d 759c d9be 35f3 d4bc 9872 763f
000003a0: 943f efbb c5d7 50bd 6b2f 5b3f 5bf5 a9be
000003b0: 90b8 03bf 864c 1c3f b4a6 b1be 83d5 173f
000003c0: 75b3 c5be b396 0d40 f4fa d83d 02d5 bb3f
000003d0: f332 253f f06a 2cbf dc5c 2f3f d5b3 71bf
000003e0: e975 ddbe 63f2 c73e 0647 2c3f 0562 be3f
000003f0: 7cec 8dbc c0f4 21be bddf ef3e aa48 2fbd
-0.9430254 1.0488967 0.49338588 1.4793608 0.057221357 1.1022872 1.4801626 0.8888271
-0.09008498 1.1329606 -0.94320977 0.65772754 2.2673101 0.7281923 0.62512475 0.5201274
-0.16312595 -0.5414862 1.6738315 0.35005075 -0.37961748 2.119019 1.0954367 1.1907474
0.40342396 1.0981659 0.8615833 1.8298804 -1.2401179 -0.7650574 1.4142107 0.97284895
-0.84415126 1.5479686 0.9321372 1.0206625 -0.18960471 0.0569419 0.8828669 -0.43296754
1.3925223 -0.033036925 -0.34115368 0.6114886 0.86783963 -0.022129938 1.669702 0.7013986
0.29475638 0.6526582 -0.3399251 0.90891397 1.0128849 2.024278 -1.3639184 -0.9745139
-0.07684484 -0.4165955 0.53891027 -0.27634808 -0.33405218 0.48736465 -0.97378093 0.6033286
-0.35856217 -0.071903035 -0.7996482 0.774756 0.5256986 0.2133754 -0.39940158 1.6998973
0.7075245 1.4837235 0.5829736 1.1389319 -0.22088236 0.39450544 -0.100868635 1.0825963
-0.79410064 0.6326287 -0.32098374 0.42143 -1.3955474 0.6056795 1.1194539 -1.9972042
0.2580812 2.0023544 0.48498333 1.3493155 -1.1144408 -0.06898252 0.5745834 1.1711289
0.2602033 1.9449911 0.16004185 0.86954015 -0.33445743 0.066162646 -0.4345747 0.9925807
0.9441307 -0.8943113 -0.6229637 -0.7019768 0.31448838 0.7046983 0.45600557 1.5164438
0.3918139 0.49015605 1.5801346 -1.3901258 -0.7512521 -0.43846813 -0.50094324 0.91549313
-0.45064253 0.7561691 -0.25679335 1.5070478 0.5627082 -0.2333457 0.4833497 1.2126532
2.9218335 1.9197884 1.2525903 1.0890305 -0.64102924 0.37862965 -0.39010245 -0.6121446
0.9446295 -0.53785104 1.5959814 0.5114227 -0.9785003 -0.45254824 0.8484875 -0.060687345
-1.0558022 1.3910587 0.99460524 0.34165454 1.9928979 -0.0739164 -0.7112605 -0.9736583
0.72063464 0.2146728 0.9137445 0.07926826 0.42266846 1.6147085 -0.30054983 -0.40551504
1.638589 -0.2100029 0.38498363 -0.0077891885 0.98982066 -0.3358549 1.3846246 -0.26344547
-0.24909095 0.38824818 0.69138485 1.2598416 -1.2606077 -0.70543236 -0.29263872 0.80408496
-0.24159642 1.414432 -0.2672162 -0.09194719 -0.13712591 -1.3433888 0.8044987 -0.32428566
-0.42503372 0.90604883 1.1834421 -1.0957066 -0.1709422 -0.14283983 1.1553887 -0.042706408
1.1117469 -0.600933 0.16629612 0.23158935 -0.5577776 -0.26899356 -0.24500425 0.40670678
0.1619569 0.9952715 1.4039044 -0.5353307 -0.6757402 1.0370659 1.3003988 1.4882828
-1.1604139 0.83268666 0.0038923265 0.80502546 0.84823704 0.76623565 0.7020412 -0.31614062
0.85296834 -0.077103555 1.681074 -0.27416933 0.47690633 0.46264553 -0.5609408 0.75250113
-0.55377495 -1.8044012 0.21754423 -0.459187 0.09028155 -0.4250218 -0.025994876 0.96268606
-0.0073012803 -0.050987024 0.8561923 -0.33195004 -0.51453495 0.61054265 -0.34697497 0.5931017
-0.38613477 2.212323 0.105947405 1.467438 0.6453087 -0.67350674 0.6850107 -0.94415027
-0.4325402 0.39052114 0.67295873 1.4873663 -0.017324679 -0.15816021 0.46850386 -0.042793907

l1.bias f4 [8]
00000000: 27e1 783f 3da6 be3f f3d7 5b3f 27df d93f
00000010: b291 ac3f 217f 923f 4c20 1c3f b868 743f
0.97218555 1.4894482 0.8587639 1.7021226 1.3481963 1.1445047 0.6098678 0.9547229

l2.weight f4 [8, 8]
00000000: e9f4 723f 809a 413f c91d 4cc0 b3a4 a63f
00000010: 29f9 cfbe 5917 cbbf 40d7 5040 5500 2c40
00000020: 7214 05c0 393f bb3f 81b3 dd3f 01a2 ae3f
00000030: 1db0 c3bd 55fe a4be 7cd1 b1bf eb57 1540
00000040: 68d0 0bbd 70fa 24bd 888f 0bbd b0a4 7dbe
00000050: 1c27 16be c660 11be e2bc 93be c120 a9be
00000060: bc7e 0840 a2c0 0f40 e541 febe ebb2 8e3f
00000070: 4524 d73e f2b6 a1bf 92e9 8cbf a505 d4be
00000080: 6643 5bbf b73f a23f 04ac a93d 5f18 d13f
00000090: 7e72 3240 9ab3 1f3f ae09 b63f c24d ebbf
000000a0: d0f3 4740 4411 52bf 42ab 0740 ed37 1540
000000b0: aa3c cebe 0d25 ad3e 677e 01bf ec14 14bf
000000c0: 4a43 2b3f c0b4 0c40 9eeb 9ebf 54fa cabe
000000d0: ffa7 e73f 904f 4440 f068 ebbf 65f6 983f
000000e0: 447d b0bd 1860 8bbe cd25 34bd 5dc5 383e
000000f0: 815b b1be 25d8 54be 8a7f debd b2c2 0fbd
0.94904953 0.75626373 -3.189318 1.3019012 -0.40619782 -1.58665 3.2631378 2.6875203
-2.079373 1.4628669 1.7320405 1.364319 -0.09555075 -0.3222529 -1.3892055 2.333491
-0.0341343 -0.0402779 -0.03407243 -0.24769855 -0.14663357 -0.14197072 -0.28855044 -0.33032802
2.1327353 2.2461324 -0.4965965 1.1148351 0.4201986 -1.2633955 -1.100878 -0.41410556
-0.85649717 1.2675694 0.082847625 1.6335562 2.788238 0.62383425 1.4221704 -1.8383105
3.1242561 -0.82057595 2.1198277 2.3315384 -0.40280658 0.3381733 -0.505835 -0.57844424
0.6689955 2.198532 -1.2415655 -0.3964411 1.8098143 3.067356 -1.8391399 1.1950194
-0.086176425 -0.2722175 -0.043981362 0.18044038 -0.34640124 -0.20785578 -0.1086417 -0.035097785

l2.bias f4 [8]
00000000: 5d6e 913f 4c08 0f3f da88 a0be 299d 49bd
00000010: c2da fc3e 785e 9c3f c0aa 743f a5b5 a4be
1.1361805 0.55872035 -0.3135441 -0.049222145 0.4938565 1.221633 0.95573044 -0.32169834

l3.weight f4 [60, 8]
00000000: 8ea1 dc3e 6987 8abf e034 d7bd 797e e93d
00000010: 2e65 0a3e 65cb 4ebf c6a7 33bf 02c5 61bc
00000020: 920e 50c0 92be 183f 8e85 073e 65e1 bebf
00000030: f5cb 35bf 06ca 7ebf 30ab 823f e373 263d
00000040: 48db e8bf d534 1fc0 dfa9 873e 2095 0a3e
00000050: 0081 f8bf ea34 463f e0f7 0a3e 9651 383e
00000060: 9a9e a93d 7938 1e3f 5a77 0e3e 93f7 82bc
00000070: 6542 72be 8410 b3bf 3814 a2be 47f8 84be
00000080: 130a 273e c7f8 0e3f baa6 293e 2018 b6bf
00000090: 18df f0bf 4cc4 d13e d7ac 07c0 9751 903e
000000a0: 1ff2 193f 36e4 4ac0 f9dc 24be 613a e0bf
000000b0: 36f7 7fbe 8f66 a6be 37c7 513e 02e4 e93d
000000c0: f3de 3cbf 1762 b5be 76dd 7b3e 4974 2e3f
000000d0: dede 30c0 6a0d 903e f699 543e 8bfd 013e
000000e0: a0a9 703f 054f b53c 3c2a f63d b76b c8be
000000f0: 68e3 4ac0 6393 acbf d774 12be 433f e53d
00000100: 005f 3c3f 20fc 343d 1c88 a63d 31b1 b8bf
00000110: 9aca 41bd ec73 ddbf 942f b9bf 645a 503e
00000120: 5ee1 dc3e 036c 593f 7acf 9abe 4b43 0bc0
00000130: b29f 31bf 89ef 91bf cf7c b8be 333b 9ebe
00000140: 452a 693d ce2e 1dc0 e09e a0bd d90f 433f
00000150: 00c6 18c0 6d44 e63e b801 12bf 7b75 b3be
00000160: 4eba 8fbd 0d98 a9be 1aa3 1fbe 4317 143f
00000170: 23a4 593e 042b 37c0 f601 773e a472 843d
00000180: fd74 0f3e 0ef7 19c0 e184 a93e b32d a03b
00000190: 22fb 563f 3b6d 0cc0 7850 f9be b5db 16be
000001a0: 32ef 51be 3718 58be a0ce 5e3c c7e6 9d3e
000001b0: c0de 36c0 364e 2f3f eb4d f8bf e1d2 4f3e
000001c0: 3d8b 3d3f a0b2 2ac0 85f8 8a3e c3ed 2e3d
000001d0: 66d0 23be fd59 8abe 0990 3cc0 f18c 68be
000001e0: 5891 fe3e 6273 a2be 9b84 903e 3b83 05bf
000001f0: 0f33 96bf 81bd 60bf bd4e 0e3f 5abc cdbb
00000200: 4902 d0bf 0fee b3be c45e cc3d 5688 343f
00000210: c805 47bf 3fc6 063f dd9f 49c0 45ff 5abe
00000220: b6e2 853f 665e 203f b679 7ebe eca6 18bf
00000230: 07cc d1bf 33c8 07c0 328e 19c0 8696 3c3e
00000240: bef8 a73e 4f4f 313f 703d 983c c907 953e
00000250: 3872 bbbf 63ef 44bf 96be 02bf b6a0 c4bc
00000260: d03c eebe a438 0cc0 3845 433d c318 23bf
00000270: 58ad b2bf 67a5 de3d 7ad1 7d3f fa3d ab3d
00000280: c309 833e 34ba e0bd 885e 3bbe 8254 b33e
00000290: 43f6 80c0 8ab6 1bbd 52ba 293e 4886 61bc
000002a0: e6ca d63e 090c 38c0 1270 94be 7f7a 3a3f
000002b0: 6b6a fabe f549 69be 469e 72bf e6aa 413e
000002c0: 0bad 363f 7170 1bbf 7834 6ebe 2f3b 8a3e
000002d0: 724b 02c0 e458 6b3d 4af2 04c0 ac7e c0bd
000002e0: e8b2 a8be af7e 24c0 33d5 03be adc2 293f
000002f0: 4d05 273f b49a 45bf 1aff 0cbc a999 be3d
00000300: d76c 3fc0 8e79 05be d3e2 1cbe de60 203f
00000310: dd0d a83d 55d4 b0be 49e1 b83e 67c4 b6bd
00000320: cb79 1ac0 fd63 363f b821 a4be 95c3 c8bc
00000330: 82e6 e03e 1f5e 40bf 73a7 40bc c525 a5bd
00000340: 88c5 e5bd 4734 ec3d b9bd 7bbe 8fa1 fbbf
00000350: fe24 f03e f3e4 18bf d5aa d2be 11e0 753e
00000360: 77c4 133f fb16 823e 5083 98be 2f95 28be
00000370: f1f2 19bf 7735 fbbe c2ec 26c0 267d a73e
00000380: ab0f d93e 94f0 193f 6038 09bc a609 90bf
00000390: 2c1c 18c0 4382 1ec0 37e2 263f d3de 5eb9
000003a0: d2a9 59c0 729a 1bbe 96aa 433e 4c4f b73e
000003b0: d50d fcbf a418 373e 9840 493f 5813 223e
000003c0: 53c6 783e dc5b b8bf 00f4 c63c bd46 03bf
000003d0: dfcf dfbe 684f c13e 60bc cdbe ce44 22bd
000003e0: 87d2 643f d823 9dbf 82f7 7c3e 1c91 09c0
000003f0: 844b 56bf 59dd 173d a2e5 bfbf d59a 9bbe
0.43092006 -1.0822574 -0.10508132 0.11401076 0.1351516 -0.80779105 -0.70177877 -0.0137798805
-3.2508893 0.5966579 0.13234541 -1.4912535 -0.7101434 -0.99527013 1.0208492 0.040637862
-1.8191919 -2.4875996 0.2649679 0.13533449 -1.9414368 0.7742449 0.1357112 0.17999873
0.08282204 0.6180492 0.13912717 -0.015987193 -0.2365814 -1.3989415 -0.3165605 -0.2597067
0.16312437 0.55848354 0.16567507 -1.4226112 -1.8818083 0.40970075 -2.1199243 0.28187248
0.6013507 -3.170179 -0.1609992 -1.7517816 -0.24996647 -0.3250012 0.2048615 0.11420442
-0.73777694 -0.354264 0.245962 0.6814619 -2.7636027 0.28135234 0.20761856 0.12694375
0.9400883 0.022132406 0.12019774 -0.3914468 -3.1701298 -1.3482479 -0.14302383 0.11193707
0.7358246 0.044185758 0.081314296 -1.4429075 -0.047312357 -1.7301002 -1.4467645 0.20346981
0.43140692 0.8493044 -0.30236417 -2.1759822 -0.693843 -1.1401225 -0.3603272 -0.3090454
0.056925077 -2.4559817 -0.07842803 0.76196057 -2.387085 0.4497408 -0.5703387 -0.35050568
-0.07017957 -0.33123818 -0.15589562 0.57847995 0.2125402 -2.8620005 0.24121842 0.064671785
0.14009471 -2.405704 0.3310919 0.0048882603 0.8397695 -2.194167 -0.48694205 -0.14732249
-0.20501402 -0.21102987 0.013599068 0.30840132 -2.8573456 0.68478715 -1.9398779 0.20295288
0.74040586 -2.6671524 0.2714273 0.042707216 -0.15997466 -0.2702178 -2.9462912 -0.22710015
0.49720263 -0.31728655 0.2822617 -0.52153367 -1.1734332 -0.8778916 0.55588895 -0.006278557
-1.6250697 -0.35142562 0.099790126 0.7052053 -0.77743196 0.5264625 -3.1503823 -0.2138644
1.0459812 0.6264404 -0.24851117 -0.596297 -1.6390389 -2.1215942 -2.399304 0.18416795
0.32806963 0.6926164 0.018583983 0.29107502 -1.4644232 -0.76927775 -0.5107206 -0.024002414
-0.4653077 -2.190957 0.047673434 -0.6370966 -1.395915 0.10871392 0.9914776 0.083614305
0.25593385 -0.109730154 -0.1829778 0.35025412 -4.0300612 -0.03801588 0.16574982 -0.013764925
0.41951674 -2.8757346 -0.28991753 0.72843164 -0.48909315 -0.22782119 -0.94772756 0.18912849
0.7135779 -0.60718447 -0.23262203 0.26998278 -2.0358548 0.05745782 -2.0772882 -0.09399161
-0.32948995 -2.5702322 -0.12874298 0.66312677 0.65242463 -0.77189183 -0.008605743 0.09306652
-2.991018 -0.1303465 -0.15320902 0.6264781 0.08205769 -0.34536996 0.3610938 -0.089241795
-2.4136837 0.7124632 -0.32056975 -0.024507323 0.43925864 -0.7514362 -0.011758673 -0.080638446
-0.11219317 0.115334086 -0.24584092 -1.9658679 0.46903223 -0.5972435 -0.4114596 0.24011256
0.57721657 0.25408158 -0.29787683 -0.16463159 -0.60136324 -0.49064228 -2.6082006 0.32712668
0.42394766 0.6013272 -0.008375257 -1.1252944 -2.3767195 -2.4767005 0.65188926 -0.00021254578
-3.40099 -0.15195635 0.19108042 0.35802686 -1.9691721 0.17880493 0.7861419 0.15827692
0.24294405 -1.4403033 0.02428627 -0.51279813 -0.4371328 0.37755895 -0.4018278 -0.0396164
0.8938374 -1.2276564 0.24703792 -2.1494818 -0.8370898 0.037076328 -1.4991953 -0.30391565

l3.bias f4 [60]
00000000: 0b03 64bd 4bbf c83d cc62 163f 78ef 29be
00000010: 1081 253e 6d8c ef3e 5ea4 713e 574d b93d
00000020: eeda 173f a07a 693e 2662 c93e 8584 a4be
00000030: 80a5 9abe b016 e03e da4f 043d 6798 9abd
00000040: cea7 b4be 4f6f 683e 20bf 63bf 968c 9f3e
00000050: a289 dcbe f100 0a3c 514f 87be 82e6 83be
00000060: a88c 4fbe ce64 8dbe 31f0 16be f5b9 83be
00000070: aed0 92bd 3306 8c3e db60 03be 92ed 0d3f
00000080: ecc9 743e 6143 a93e 947a a63e cf18 02bf
00000090: 7ea6 5fbd 5ace 33be d2fd adbc 3ab1 edbe
000000a0: 2485 19be 9bcc 7a3e 9ba4 c53e bcd1 c33d
000000b0: dfb2 053e 0776 353f c7c5 093e c34b 053e
000000c0: c720 85be 8c12 083e 72b6 c83e 8fb2 2dbe
000000d0: 5ce8 ce3e 3b82 13be b04b 1ebf 58c1 d73d
000000e0: b1e4 18bf e356 d53e a3e7 55bd 7caa 22bf
-0.055666965 0.09802111 0.587445 -0.16595256 0.16162515 0.46786824 0.23597857 0.090479545
0.59318435 0.22800684 0.39332694 -0.32132354 -0.3020439 0.4376731 0.032302715 -0.075486
-0.35284275 0.22698711 -0.8896351 0.31161946 -0.43073756 0.008423076 -0.264277 -0.257618
-0.202685 -0.2761597 -0.14740063 -0.2572781 -0.07168709 0.2734848 -0.12829916 0.5544063
0.23905152 0.3305922 0.32515395 -0.50819105 -0.05460214 -0.17559186 -0.021239195 -0.46424276
-0.14992195 0.24492113 0.38602147 0.09561488 0.13056515 0.7088322 0.13454352 0.13017182
-0.2600157 0.13288325 0.39201695 -0.16962646 0.4041165 -0.14405148 -0.6183424 0.10534924
-0.59723955 0.41667852 -0.05222286 -0.6354139
